…
2018-04-19 17:37:23.178772: I tensorflow/core/common_runtime/gpu/gpu_device.cc:1120] Creating TensorFlow device (/device:GPU:0) -> (device: 0, name: GeForce GTX 1070, pci bus id: 0000:01:00.0, compute capability: 6.1)
('X_train original shape', (60000, 28, 28))
('y_train original shape', (60000,))
('X_test original shape', (10000, 28, 28))
('y_test original shape', (10000,))
_________________________________________________________________
Layer (type)                 Output Shape              Param #   
=================================================================
conv2d_1 (Conv2D)            (None, 26, 26, 32)        320       
_________________________________________________________________
activation_1 (Activation)    (None, 26, 26, 32)        0         
_________________________________________________________________
conv2d_2 (Conv2D)            (None, 24, 24, 32)        9248      
_________________________________________________________________
activation_2 (Activation)    (None, 24, 24, 32)        0         
_________________________________________________________________
max_pooling2d_1 (MaxPooling2 (None, 12, 12, 32)        0         
_________________________________________________________________
conv2d_3 (Conv2D)            (None, 10, 10, 64)        18496     
_________________________________________________________________
activation_3 (Activation)    (None, 10, 10, 64)        0         
_________________________________________________________________
conv2d_4 (Conv2D)            (None, 8, 8, 64)          36928     
_________________________________________________________________
activation_4 (Activation)    (None, 8, 8, 64)          0         
_________________________________________________________________
max_pooling2d_2 (MaxPooling2 (None, 4, 4, 64)          0         
_________________________________________________________________
flatten_1 (Flatten)          (None, 1024)              0         
_________________________________________________________________
dense_1 (Dense)              (None, 512)               524800    
_________________________________________________________________
activation_5 (Activation)    (None, 512)               0         
_________________________________________________________________
dropout_1 (Dropout)          (None, 512)               0         
_________________________________________________________________
dense_2 (Dense)              (None, 11)                5643      
_________________________________________________________________
activation_6 (Activation)    (None, 11)                0         
=================================================================
Total params: 595,435
Trainable params: 595,435
Non-trainable params: 0
_________________________________________________________________
Epoch 1/30

   1/1454 [..............................] - ETA: 12:34 - loss: 2.3968 - acc: 0.1094
  10/1454 [..............................] - ETA: 1:22 - loss: 2.2115 - acc: 0.3391 
  19/1454 [..............................] - ETA: 47s - loss: 2.1766 - acc: 0.3306 
…
